model/rnn_model.pth (torch, 13340 bytes, 5 tensors)

rnn.weight_ih_l0 f4 [50, 1]
000000 5f 45 bc bd 2c 6a be 3d 3b 34 2f 3e 8e db 42 bd
       -0.09192919 0.092975944 0.17109768 -0.047572665
000010 d8 1c aa bb 7b 89 19 be 34 4f 1a 3e 27 06 c7 bd
       -0.0051914267 -0.14993851 0.15069276 -0.0971797
000020 37 7e 21 be f2 5c 43 3e 1d 8f 80 3d ca d2 ff bc
       -0.15770803 0.19078425 0.06277297 -0.031228442
000030 8c d7 2f 3e 5e c1 87 3d 45 0d 83 be de 96 ca bd
       0.17172068 0.06628679 -0.2559606 -0.09892057
000040 03 d3 dc bd 19 5f 1e bb c0 06 46 bd 1d 98 21 bd
       -0.10782435 -0.002416557 -0.04834628 -0.039451707
000050 f5 49 07 3d db ab 6c 3e 60 a4 fd 3b 3c e0 73 be
       0.033029515 0.23112433 0.0077405423 -0.23816007
000060 ff 05 a1 3d 3f 7e 80 be 82 fd 0f 3d 46 ef 27 bd
       0.07862472 -0.25096318 0.035153873 -0.040999673
000070 ac b8 5c 3e de bc ae bd c1 a1 75 3e 19 a0 2c 3e
       0.21554822 -0.08532117 0.23987485 0.16857947
000080 9d e7 05 be 29 ca 46 be 69 9b 15 be e8 50 09 be
       -0.13076635 -0.19413055 -0.14610066 -0.1340977
000090 56 48 1a be 9b 6e f5 3c e1 9d 98 39 d6 92 1b 3e
       -0.15066656 0.029959967 0.00029109328 0.15192732
0000a0 49 80 37 be 69 74 09 3e a8 3d 13 3e 90 82 4f 3e
       -0.1792003 0.13423313 0.14378989 0.2026465
0000b0 ce d9 25 be 8b 47 21 3e 4a c5 7a be 0e 37 3c bd
       -0.16196367 0.15749948 -0.24489322 -0.04595094
0000c0 c3 e0 3b be 4c 92 08 3e
       -0.18347459 0.13337058

rnn.weight_hh_l0 f4 [50, 50]
000000 41 e7 c7 3d 6e 13 6d bd 44 bd 29 bd 74 01 59 be
       0.09760905 -0.057879858 -0.041440263 -0.2119196
000010 15 84 33 be 2d 7c 75 3e 28 ba 8c bc c0 e1 52 3e
       -0.17530854 0.2397315 -0.01717861 0.2059393
000020 99 11 46 3d af a6 89 be 18 85 d0 bc 6b 83 7d 3e
       0.048356626 -0.26884982 -0.025454089 0.24757163
000030 69 97 1d bd 1e e2 0c bc c0 48 a1 3d 8b 49 8f 3e
       -0.038474474 -0.008598832 0.07875204 0.27985796
000040 fc 79 73 3e 7b 82 52 3e be ed 11 3e d2 66 30 3e
       0.23777002 0.20557587 0.14250848 0.17226723
000050 2c 32 56 bc 76 9c ed bc e4 2c 18 be 7f 9b d6 3b
       -0.013073485 -0.02900527 -0.14860874 0.0065492983
000060 92 00 7d bc 4f e6 17 bc a1 b5 f4 3c 78 71 34 3a
       -0.0154420305 -0.009271218 0.029871764 0.0006883363
000070 ab a2 86 be e0 e5 ae bc 92 b2 4d bb 73 e4 cd bb
       -0.2629598 -0.021349847 -0.0031386954 -0.006283337
000080 68 f9 a5 3d a1 26 02 bc 3d d8 fe 3d ce 8d 7e 3e
       0.08104211 -0.00794378 0.12443588 0.24858782
000090 20 21 bc 3d d3 ae 7e 3d a3 c5 80 bd 7e 16 8a be
       0.091860056 0.062178444 -0.06287696 -0.26970285
0000a0 4d 52 04 3e 91 0d 63 3b de 26 3e be 0b c4 65 be
       0.1292202 0.0034645537 -0.18569514 -0.22438066
0000b0 f0 68 24 bb 13 b3 f5 bd fd 69 6d 3e 49 4f 69 3e
       -0.0025086962 -0.11997046 0.23184963 0.22784151
0000c0 a4 79 9c bd 34 1f 1c be 6e b4 ad 3d 16 8b b5 bd
       -0.076403886 -0.15246278 0.0848168 -0.08864419
0000d0 62 2a 1d 3e 86 ce 64 3c df 94 3b bc 82 74 1b 3b
       0.15348199 0.013965255 -0.011449068 0.0023720567
0000e0 98 7e aa 3d 92 74 ce bd 0e 51 25 be dc 59 dc bd
       0.08324927 -0.10080828 -0.16144201 -0.10759327
0000f0 d1 fb ed bd 3a f2 d1 3d 9a 46 74 3d 44 22 5e be
       -0.11620296 0.10251279 0.059637643 -0.21692759
000100 61 f6 ad 3d fb 7c e9 bd 70 31 fd 3d b7 2d 51 bd
       0.08494259 -0.11400791 0.12362945 -0.051068988
000110 ed a8 c0 3d 86 06 e4 3d 09 2d dd bd df b2 ce 3d
       0.0940722 0.11134057 -0.107996054 0.10092711
000120 31 e9 15 bd 0f 99 33 be e0 ba c6 3d b7 68 22 bc
       -0.03659934 -0.17538856 0.09703612 -0.009912661
000130 b9 a8 61 3e 75 b9 47 3e ad 8d c7 bc 4c cc 08 be
       0.22037019 0.1950434 -0.024359548 -0.13359183
000140 4d 36 cd bd 80 72 0c 3e bd 0b 00 be da 76 2c bd
       -0.10020123 0.13715553 -0.12504478 -0.042105533
000150 ae 79 88 3d ab 73 e9 bd c3 af b5 bd a4 3c a7 be
       0.066638336 -0.11399015 -0.088714145 -0.32663453
000160 b7 a7 b7 bc 42 67 66 3c 83 7c c4 bb da c8 03 be
       -0.02241884 0.0140627045 -0.0059962883 -0.12869588
000170 d1 98 66 bd 03 42 6d bc 67 36 ff bd 26 9f f8 3d
       -0.05629808 -0.01448107 -0.12461548 0.1213973
000180 bb fa 8c bd 49 74 0c be 05 45 63 3e 67 05 24 3e
       -0.068837605 -0.13716234 0.22194298 0.16017686
000190 18 42 20 be 82 6a 11 3e 41 2b 04 3e 8a da 52 3e
       -0.15650213 0.14200786 0.12907125 0.20591179
0001a0 16 68 88 bc 57 73 30 be 61 9f 63 3e ce 61 25 be
       -0.016651195 -0.17231499 0.22228767 -0.16150591
0001b0 f9 32 f8 bd e8 d8 19 3d fe 18 26 3d 5b 4b 48 be
       -0.12119097 0.037560374 0.04055118 -0.19559996
0001c0 19 ca 4d 3e e7 74 84 bc 58 17 2e bb f0 d3 17 be
       0.20096625 -0.016169025 -0.0026564207 -0.14826941
0001d0 aa 3d c8 bc 56 e2 2e be 42 8f 07 3e 86 4e 31 be
       -0.024443466 -0.17078528 0.13238242 -0.1731511
0001e0 5d 91 95 3d b1 9d 81 3c 9a d5 34 3e 08 ce ee bd
       0.073031165 0.015822263 0.17659608 -0.11660391
0001f0 46 40 da 3c 28 ee 2b be 70 a0 e8 bc 24 d7 26 be
       0.026641976 -0.16790068 -0.028396815 -0.16293007
000200 f8 30 1c 3e 9a df 96 bd c6 f9 48 3e 9e 9e 2c 3e
       0.15253055 -0.07366867 0.19626531 0.16857383
000210 d8 f4 f8 bd 3f b2 df bd 85 50 6c be 93 5e 65 3b
       -0.12156075 -0.109226696 -0.23077591 0.0034998998
000220 b5 24 78 bd 7b b0 18 bc 20 f3 80 3d 15 83 6a 3e
       -0.06058188 -0.00931942 0.062963724 0.22901566
000230 d7 e4 ba bd a1 66 e3 3c ce 6e d9 3d 63 5d ae bc
       -0.09125679 0.027758898 0.106168374 -0.021284765
000240 bb 26 5f be b5 b5 82 3d 97 f5 3a be 13 57 0c be
       -0.21792118 0.06382314 -0.18257748 -0.13705091
000250 f5 13 54 3e 3c 75 02 3d fc 15 c9 bc 10 73 72 3c
       0.20710738 0.031850085 -0.024546616 0.014797941
000260 16 6c 7f bd 76 c5 9f 3d 93 e2 c1 3c 7a a3 31 be
       -0.06235894 0.078013346 0.02366761 -0.17347518
000270 d2 b6 c0 bc 82 30 f2 3c 29 d8 17 be b6 61 1b 3e
       -0.023524676 0.029564146 -0.14828552 0.15173993
000280 64 19 f0 3d c1 77 ec 3d d6 27 22 3d c2 cc 9d 3d
       0.11723593 0.11546279 0.03958877 0.0770507
000290 39 28 1b 3c 2d 93 09 bd f4 57 28 be ee 9d 08 bd
       0.009470039 -0.033587623 -0.16439801 -0.03335374
0002a0 0d 87 bd bd 91 54 b9 bc 2e 59 87 3b eb a7 53 3e
       -0.092542745 -0.022623332 0.004130504 0.20669524
0002b0 86 8c a0 3d 28 f0 7b bc 46 4f 68 3d dc f9 2d be
       0.07839303 -0.015377082 0.056716226 -0.16989845
0002c0 ba f8 b4 bd 35 3d 41 be 93 e0 c5 3c 54 ef d2 3d
       -0.08836503 -0.18871005 0.024154937 0.102995545
0002d0 f3 b1 50 bd 1a d9 52 3e d3 19 fc bd 1f 72 68 3d
       -0.050950956 0.2059063 -0.12309613 0.05674946
0002e0 22 4e 81 3b a4 da f6 bd 7a ee 26 be 69 a4 90 bd
       0.0039460817 -0.12053421 -0.16301909 -0.07062609
0002f0 81 92 6d 3e 29 d8 81 bc 1b 92 16 be 1a c4 e9 3c
       0.23200418 -0.015850144 -0.14704172 0.028535891
000300 d5 7e 23 3e 7c 17 ba bd 5e 5d d4 bd fc f0 15 3d
       0.15966351 -0.090865105 -0.10369371 0.036606774
000310 84 e5 19 be b0 cc e3 bb 3e 9b 93 bd 83 13 83 bd
       -0.1502896 -0.006951891 -0.072073445 -0.06400206
000320 c2 ee 53 be 50 5f 10 3d c1 81 2b 3e 68 2e 44 3e
       -0.20696548 0.035247147 0.16748716 0.19158328
000330 18 f7 3a 3e 03 4a 75 be dc 09 b0 3d 92 55 29 be
       0.18258321 -0.23954014 0.085956305 -0.16536549
000340 f2 57 65 be d1 09 f9 bb 37 4d 19 be 67 d3 0e be
       -0.2239683 -0.007600047 -0.14970861 -0.13947831
000350 35 80 b5 3d 89 d5 1c 3e a7 c9 a0 bd 68 f5 43 be
       0.08862344 0.15315832 -0.07850962 -0.19136584
000360 0b 75 09 bd 23 7c b1 bd 76 80 85 bd 52 fd e4 bc
       -0.033558886 -0.08666255 -0.065186426 -0.027952824
000370 fb 6f 92 3d 0e c8 5b 3e e7 33 ab 3d 23 e7 12 be
       0.07150265 0.21463034 0.08359509 -0.14345984
000380 05 e4 76 bd c0 bc 27 be fc 5e 08 3e bc a8 fe bd
       -0.06027605 -0.16380596 0.13317484 -0.12434527
000390 e6 89 ea 3d a9 29 5b be 1b b1 78 3e 3d 5b 46 3d
       0.11452083 -0.21402611 0.2428631 0.048426855
0003a0 10 f5 83 bd bb 5c 87 be 19 7a 9b bc 03 4d 0f be
       -0.06443226 -0.26437935 -0.01897912 -0.13994221
0003b0 b1 bd 2b be 64 33 0a be 3c e0 66 3e fb 4a 82 3d
       -0.1677158 -0.13496166 0.22546476 0.06361958
0003c0 5d ee 2d be 9a f3 09 3e b0 a6 f2 bc 46 cf dd 3d
       -0.1698546 0.13471833 -0.029620498 0.1083055
0003d0 0c cb cf bd 5a ee 48 3e b5 0d 7e be 39 2f 95 3c
       -0.1014615 0.19622174 -0.24809916 0.018210994
0003e0 cc 2f 03 3e 7e dd 3f 3e 64 d4 64 3d 7b 14 4b bd
       0.12811202 0.18736836 0.055866614 -0.04958008
0003f0 ba 9b 20 be 07 c9 07 bd 24 b8 2e be 42 ee 70 3e
       -0.15684405 -0.0331507 -0.17062432 0.23528388

rnn.bias_ih_l0 f4 [50]
000000 8a 0e 03 be 1b 87 42 3c d8 fe ae 3d 1a fb 6d 3d
       -0.12798515 0.011873032 0.08544701 0.058100797
000010 d3 c3 d7 3d 2b 25 74 be 38 84 22 3d 44 63 1c be
       0.105353974 -0.23842303 0.039676875 -0.15272242
000020 19 11 25 be d3 b7 c4 3d 65 a1 4f bd af da db bd
       -0.16119803 0.09605374 -0.050691027 -0.1073507
000030 cf 2d f3 3d 90 53 36 bc 40 f9 7e be 51 c1 28 be
       0.11873972 -0.011128321 -0.24899769 -0.16479994
000040 eb 41 9b bd 30 e5 11 be 76 c6 86 bc 34 66 63 be
       -0.07580932 -0.14247584 -0.016452055 -0.22206956
000050 7e 18 e7 3d b0 8c 08 3e f9 61 4a 3e a7 b8 79 be
       0.112839684 0.13334918 0.19763936 -0.24386846
000060 1e f4 ce bd 83 ab a1 3c 0f db 28 3c 64 fe 5f be
       -0.101051554 0.019735103 0.010306134 -0.21874386
000070 4d 13 83 3e c4 48 69 3d 42 0d 57 bd 4e 30 98 3b
       0.25600663 0.05695416 -0.052502878 0.0046444302
000080 fb e2 93 bd bc 2d 87 be 2b 0f 1b be b4 48 16 be
       -0.072210275 -0.2640208 -0.15142505 -0.14676172
000090 8e f2 2f bd 13 bc 1e bd 61 83 84 3e 23 fd 37 3e
       -0.042955928 -0.03875358 0.25881484 0.17967658
0000a0 33 e9 cc bd 6e 3e c1 3c 18 3f 9b 3d 4b 8b 8b 3d
       -0.10005417 0.02358934 0.075803936 0.068136774
0000b0 b3 57 ce bd bc 3e 30 3e 6b 96 80 bc 3c 52 80 be
       -0.10075321 0.17211431 -0.015696725 -0.2506274
0000c0 6b ab 2b be a3 1c c3 3c
       -0.1676461 0.023817366

rnn.bias_hh_l0 f4 [50]
000000 b6 a6 e9 bd a4 fd 2f 3d ed 65 59 3e 25 a0 2c 3e
       -0.11408751 0.0429665 0.21230288 0.16857965
000010 85 0e 83 3e fe 5d b6 bc ad 61 8b 3e 2f 22 dd bd
       0.25597015 -0.022261616 0.27222958 -0.10797536
000020 94 3d ba bc 11 25 6c 3e 25 65 ed 3b e6 79 f1 bc
       -0.02273444 0.23061015 0.0072447234 -0.029477071
000030 06 a8 45 3e cc 6a 8d bd 77 6e 7d b9 97 23 26 be
       0.19302377 -0.069051355 -0.00024169112 -0.16224514
000040 f3 c5 a1 bd 95 a2 e1 bc a2 5e c8 bd 5e 02 f6 3c
       -0.07899084 -0.027543345 -0.09783675 0.030030426
000050 1e ea 27 3e f5 58 a6 3c b0 1f 0c 3c fd 46 4e bd
       0.16397902 0.02030609 0.008552477 -0.05036067
000060 52 e5 cc bd e1 87 0f be 89 f8 a4 bd 0e a3 a4 bd
       -0.10004677 -0.14016677 -0.08055217 -0.08038913
000070 b4 6d 5f 3d f1 52 0b be 5e 9b e9 3d 9a c9 14 3e
       0.05454798 -0.13605858 0.11406587 0.1453003
000080 7f 48 59 be b3 bd 26 be 3a 3c ad bd a9 b6 6c be
       -0.21219061 -0.16283302 -0.08458753 -0.23116554
000090 33 31 39 be 51 3e 0a 3e 70 a1 15 3d fd 5f 2b 3e
       -0.18085174 0.13500334 0.036530912 0.16735835
0000a0 79 b7 78 be 39 ae 81 3d 6e 50 69 3e 75 09 23 3e
       -0.2428874 0.063320585 0.22784588 0.15921576
0000b0 e9 5a 84 be 5b 9b a2 3a 15 ca 2b be c7 f2 f6 b9
       -0.2585061 0.0012405919 -0.16776307 -0.0004710166
0000c0 35 fe d2 bc 41 92 6f 3e
       -0.025755981 0.23395635

fc.weight f4 [1, 50]
000000 29 f2 1e be e6 3f 06 3a 29 89 0e 3d be d5 83 bd
       -0.15522064 0.0005121216 0.034798775 -0.064372525
000010 31 ee 43 3e dc 5b 34 be eb 15 4d 3e be 1f 41 bd
       0.19133832 -0.17613167 0.20027892 -0.047149412
000020 8f d0 9a bd a7 9a 0d 3e f7 f6 dd bc 71 d9 2c bc
       -0.07559311 0.13828526 -0.027095301 -0.010549889
000030 ac 56 b4 3d ff 4e b0 bc 01 0c 42 be 0b 39 e6 3c
       0.08805594 -0.021522043 -0.18949892 0.028103372
000040 99 a5 9b bd 9c 28 65 be 97 28 de bd 77 97 0a be
       -0.075999446 -0.22378772 -0.10847586 -0.13534342
000050 43 98 36 3e 92 b4 c3 3d 27 06 f5 3d 00 cc 0f be
       0.1783152 0.095559254 0.11964064 -0.14042664
000060 b0 5e 7b 3d 86 5d 73 bd 21 d3 b3 bc e9 f7 d0 bd
       0.061369598 -0.059415363 -0.02195126 -0.10203535
000070 a3 b4 24 3e 49 70 17 3d d3 11 87 bd 89 cb d5 3d
       0.16084532 0.036972318 -0.065951966 0.10439212
000080 2c 4d 2e be e8 a4 42 be bf 15 51 be 9c c9 50 be
       -0.17021626 -0.19008219 -0.20418452 -0.20389408
000090 a1 ef 65 be 74 7d 6e bd a7 8e 1a 3e 81 f5 d8 3d
       -0.22454692 -0.05822511 0.1509348 0.10593701
0000a0 5d 5e 29 be 51 67 19 3d 91 9a f4 3d 7c 93 d9 3c
       -0.16539903 0.037452046 0.11943544 0.026559584
0000b0 50 23 23 be fd cd 20 3e 51 40 a5 bc 88 c7 03 be
       -0.1593144 0.15703578 -0.02017227 -0.12869084
0000c0 b9 09 d9 3c 78 f2 5c 3d
       0.026493894 0.053942174
